…
위와 같은 코드를 이용하여 간단하게 다운받을 수 있다.

## 내가 만든 model에대한 설명
### learning rate, training epoch, batch size, drop out rate
learning rate, training epoch, batch size, drop out rate는 아래와 같이 설정했다.
```python
learning_rate = 0.001
training_epoch = 15
batch_size = 100
drop_out_rate = 0.5
```

### layer
출력충을 포함해서 총 9층으로 구성했으며,
CNN layer는 4층, FC layer는 5층으로 구성했다.
또한 총 4개의 model들을 ensemble 하였다.

```python
_________________________________________________________________
Layer (type)                 Output Shape              Param #   
=================================================================
conv2d (Conv2D)              (None, 32, 32, 15)        735       
_________________________________________________________________
max_pooling2d (MaxPooling2D) (None, 16, 16, 15)        0         
_________________________________________________________________
conv2d_1 (Conv2D)            (None, 16, 16, 30)        7230      
_________________________________________________________________
max_pooling2d_1 (MaxPooling2 (None, 8, 8, 30)          0         
_________________________________________________________________
conv2d_2 (Conv2D)            (None, 8, 8, 30)          14430     
_________________________________________________________________
max_pooling2d_2 (MaxPooling2 (None, 4, 4, 30)          0         
_________________________________________________________________
conv2d_3 (Conv2D)            (None, 4, 4, 30)          14430     
_________________________________________________________________
max_pooling2d_3 (MaxPooling2 (None, 2, 2, 30)          0         
_________________________________________________________________
flatten (Flatten)            (None, 120)               0         
_________________________________________________________________
dense (Dense)                (None, 200)               24200     
_________________________________________________________________
dropout (Dropout)            (None, 200)               0         
_________________________________________________________________
dense_1 (Dense)              (None, 200)               40200     
_________________________________________________________________
dropout_1 (Dropout)          (None, 200)               0         
_________________________________________________________________
dense_2 (Dense)              (None, 100)               20100     
_________________________________________________________________
dropout_2 (Dropout)          (None, 100)               0         
_________________________________________________________________
dense_3 (Dense)              (None, 100)               10100     
_________________________________________________________________
dropout_3 (Dropout)          (None, 100)               0         
_________________________________________________________________
dense_4 (Dense)              (None, 10)                1010      
=================================================================
Total params: 132,435
Trainable params: 132,435
Non-trainable params: 0
_________________________________________________________________
Train on 50000 samples

```
## 전체 
```python
import tensorflow as tf
import numpy as np
import matplotlib.pyplot as plt
import random
import os
import time
import datetime

cifar = tf.keras.datasets.cifar10
…
